ai_edge_torch/generative/test/fixtures/test_lora_rank16.safetensors (safetensors, 29688 bytes, 8 tensors)

base_model.model.model.layers.0.self_attn.k_proj.lora_A.weight f4 [16, 64]
000000 42 d3 01 40 2d 78 e9 be 40 24 a1 bf cb aa 6a 3f
       2.0285192 -0.455995 -1.2589188 0.9166686
000010 54 8b 37 3f 90 e6 90 3f d4 8e d0 3e 71 85 2b 3f
       0.7169697 1.1320362 0.4073397 0.6700049
000020 af fd 90 bf d1 03 62 3f c4 38 ce 3f c2 33 7c 3f
       -1.1327418 0.88287073 1.6111073 0.98516476
000030 e2 ed 85 3f ad bb 98 bd 41 c3 7d 3f 9b 13 4b 3f
       1.0463221 -0.07457671 0.9912606 0.7932679
000040 e3 50 d4 3e d3 12 24 bf 09 eb a1 3e a7 f4 bf 3f
       0.41467962 -0.64091223 0.3162463 1.4996537
000050 b0 fd cd be 1d 73 84 bf 13 61 48 3f e2 72 c3 3d
       -0.4023261 -1.034763 0.78273124 0.095433965
000060 cc c9 ac bf 56 31 a9 3f 89 c6 a4 bc 8b 68 13 3f
       -1.3499084 1.3218181 -0.0201142 0.57581395
000070 c6 ab bd bf 64 39 73 3f f8 06 3a be 5c 97 d2 3f
       -1.4818046 0.95009446 -0.18166721 1.6452441
000080 7f 74 d7 bd 92 f3 5e bf 39 f7 2d 3f 48 75 26 3e
       -0.10520267 -0.8709041 0.67955357 0.16255677
000090 65 a2 b9 3f 3c 39 04 be 7e b4 f5 bd 61 b1 43 bd
       1.4502684 -0.12912458 -0.11997317 -0.047776584
0000a0 25 42 e5 bf 82 5a 3a 3f 6e 37 2d 3f 4f 2a 5f 3e
       -1.7910811 0.72794354 0.67662704 0.21793483
0000b0 87 4e 96 3f 6c ff 49 bf fc db cb be 1c 8e f4 3d
       1.1742715 -0.7890537 -0.39816272 0.11941168
0000c0 7c f5 91 3f 09 dd 05 3f 94 4a 8c bf cb fd c0 3e
       1.1403041 0.522904 -1.096026 0.3769363
0000d0 8e 18 23 c0 8c 60 68 3d 4e 00 9a be 10 2a 06 40
       -2.5483737 0.0567327 -0.30078357 2.0963173
0000e0 e9 af 76 3f 8f 3f 93 bd d2 ee 9f be 5f 7f 56 3f
       0.9636217 -0.07189857 -0.31236893 0.837881
0000f0 dc 26 b9 be 78 db 83 bf cd 41 34 3f b7 c5 7c 3f
       -0.3616246 -1.0301352 0.70412904 0.9873919
000100 cf 4d 0a 40 6f 8a 47 3f 1b 46 cd be 02 3d 41 bf
       2.160999 0.7794561 -0.4009255 -0.75483716
000110 75 fe 04 40 32 cc 74 bf 2e 96 d6 3e 2e b6 9b bf
       2.0780308 -0.9562408 0.41911453 -1.2164972
000120 94 51 e7 3e 23 74 43 3f cd 80 da bf 53 76 97 bf
       0.45179427 0.76349086 -1.7070557 -1.1832985
000130 6e 16 85 3f a8 b9 db 3c 60 ed 03 bf 60 47 41 3f
       1.039747 0.026821926 -0.5153408 0.75499535
000140 8e c8 2b 3f d8 75 9c bf d4 05 94 3e 08 cd 32 3d
       0.671029 -1.2223463 0.28910697 0.043652564
000150 e4 eb 00 3f b2 1e 5b 3f 16 33 3f bf d9 a2 1b bf
       0.5035994 0.8559371 -0.74687326 -0.6079536
000160 2f 21 5f 3f 54 6e aa bf fa 33 d9 3e 6e b9 65 3f
       0.8716001 -1.331492 0.42422467 0.8973607
000170 c3 dc 40 3f b0 a8 7c bf c4 fc 27 bf af af 1e bf
       0.75336856 -0.98694897 -0.65620065 -0.6198682
000180 f0 f7 67 bf e0 fb 1e bb 50 a4 0a 3e 7f 63 36 3e
       -0.906127 -0.0024259016 0.13539243 0.17811392
000190 27 24 84 bf cd c6 b0 bf b6 b2 12 c0 38 5f 63 3f
       -1.0323533 -1.3810669 -2.2921576 0.8881717
0001a0 a3 64 d9 3f 18 36 cc 3f f0 8e cd 3b e8 0f bc bf
       1.6983837 1.5954008 0.006273143 -1.4692354
0001b0 14 1f a7 bf 43 a6 aa 3d 68 27 e7 3e 7c b9 92 3f
       -1.3056359 0.08332493 0.45147252 1.1462855
0001c0 23 cd 42 bf ef ae f2 be 9f 18 12 40 07 f5 00 40
       -0.76094264 -0.4739909 2.2827528 2.0149553
0001d0 9c e3 bb 3e eb 7e 2f 3f b5 f0 d7 3e 13 6a 9a 3f
       0.3669709 0.68553036 0.42175832 1.2063621
0001e0 f1 fb fa bd f2 01 39 bf e6 17 22 3f e7 45 33 be
       -0.12255085 -0.72268593 0.63317716 -0.17507134
0001f0 df 08 01 3e 28 88 19 3f 35 7e a8 bf 45 9d b0 bf
       0.1260104 0.5997338 -1.3163515 -1.3797995
000200 8d c7 0b 40 22 58 4b 3e 0e bd 7b bf 1e 93 c3 be
       2.1840546 0.19857839 -0.9833535 -0.3819818
000210 c9 a8 0d 3d 9e 16 15 3f 03 35 86 3f 70 b1 2f bf
       0.034584794 0.58237636 1.0484928 -0.68630123
000220 c9 3d 88 bf 24 7a 92 bd 64 76 24 bf fd 32 54 3f
       -1.0643855 -0.07152203 -0.6424315 0.828903
000230 b9 41 79 3e 7b 0e 37 3e 55 05 c6 bd 9c 46 41 bf
       0.24341477 0.17876618 -0.09668986 -0.75498366
000240 ce cb 83 3f 62 43 77 3e f6 7f 8c 3f 83 fc f4 bf
       1.0296571 0.24146798 1.097655 -1.913956
000250 69 40 8a 3f 9a a6 cc bd 89 d2 55 3f 3b 44 83 bf
       1.0800906 -0.09992714 0.83524376 -1.0255197
000260 54 58 af 3d 1d 3a ca 3d 8b ad 42 bf 4e a6 a8 be
       0.08561769 0.098743655 -0.76046056 -0.3293938
000270 ae 43 b5 bf 2b 3d b6 3e b2 55 97 be 36 db a5 3f
       -1.4161279 0.35593542 -0.29557568 1.2957523
000280 9d 13 24 3f 01 b5 56 bf 75 47 a1 bf b4 10 9a bd
       0.6409243 -0.8386994 -1.2599932 -0.07522717
000290 77 89 a6 be e4 e1 4f 3f 5b 66 37 c0 8d 31 51 3d
       -0.32526752 0.81204057 -2.8656223 0.051072646
0002a0 ff 26 a4 be 1e 24 86 3f 85 e7 aa 3e 47 f2 c5 3f
       -0.32061002 1.0479772 0.3337976 1.5464562
0002b0 d6 e2 08 c0 05 87 7a bf b7 76 97 be 5f 29 09 c0
       -2.138845 -0.97862273 -0.2958276 -2.14315
0002c0 b2 7a 07 3f 2a 23 c9 3f 9e b3 47 be 43 49 e6 be
       0.52921593 1.5713856 -0.19502112 -0.4497777
0002d0 65 15 d6 3c 9d 8f 29 3f 39 05 7b bf ce 63 3c 40
       0.026133249 0.6623476 -0.98054844 2.9435916
0002e0 12 11 29 bf 76 ec dd 3e b5 03 44 3e 49 47 96 3f
       -0.6604167 0.43344468 0.19142039 1.1740505
0002f0 c1 95 09 40 bf 51 d6 bd 54 eb 36 3e 4b ff 76 bf
       2.1497653 -0.104648106 0.17863208 -0.96483296
000300 a0 a1 dd 3d e6 5d 81 3f 69 bf 77 bf 0e 1e c6 3e
       0.10821843 1.010678 -0.96776444 0.38694805
000310 fd 38 85 bf e3 a7 a1 3f 5f 1f 4b 3f 82 02 a9 3f
       -1.0408016 1.262936 0.79344743 1.320389
000320 06 52 5f 3f 0c 08 2f bf e8 2a b3 bf 55 11 97 bf
       0.8723453 -0.68371654 -1.3997469 -1.1802164
000330 d8 23 16 c0 69 5f 5a c0 39 e1 e8 bf f5 7d 43 3f
       -2.3459377 -3.4120734 -1.8193733 0.7636407
000340 2f c4 80 3f 22 44 d8 3e f8 0f ba 3d 09 13 8b 3d
       1.005987 0.4223948 0.09085077 0.0679074
000350 55 fa d3 3f 49 5e 7f bf f4 31 f8 bf 64 29 f0 3e
       1.656077 -0.9975324 -1.9390244 0.4690658
000360 26 62 20 40 3f a2 85 bf c6 b0 b5 bf 3b 57 a9 bf
       2.5059905 -1.0440139 -1.4194572 -1.3229746
000370 5f a7 29 bf a4 ee 16 be b4 4d 88 bf 6c ab d0 bf
       -0.66271013 -0.14739472 -1.0648713 -1.6302314
000380 e3 60 8a 3f 27 de a3 3f 44 01 8e bd 35 ff ce bf
       1.0810817 1.280217 -0.06933835 -1.6171633
000390 06 a2 78 3e 32 1e 92 3f 53 7e fd be 11 4c e8 3e
       0.24280557 1.1415465 -0.4951044 0.45370534
0003a0 de 5a 7e 3f 3e 86 8a 3f f6 83 87 be c7 52 a3 3f
       0.993574 1.0822217 -0.26467866 1.2759637
0003b0 1a b3 df bf b7 63 0d 40 00 c1 5f be ab 84 42 bf
       -1.7476532 2.209211 -0.21850967 -0.75983685
0003c0 8a e8 25 3f 5e 9d 3d bf 17 9d 2f 3f 7e 0c 88 bd
       0.6480795 -0.7406825 0.68599075 -0.06643008
0003d0 fb e8 96 be b1 2f 66 be 2f 28 58 bf f2 e7 a1 3d
       -0.29474625 -0.2247913 -0.84436315 0.07905568
0003e0 41 ad 22 3f f9 ed f0 bf 90 ae 05 3f d0 f0 a7 3e
       0.63545614 -1.8822623 0.52219486 0.32800913
0003f0 db 0c 14 3e 81 15 37 bf 55 bb c2 3e a5 5e f4 bd
       0.14458029 -0.7151719 0.38033548 -0.119321145

base_model.model.model.layers.0.self_attn.k_proj.lora_B.weight f4 [32, 16]
000000 a6 0b 97 3f b6 17 18 3d 8b c9 66 3e 13 30 e6 3f
       1.180043 0.037131988 0.2253782 1.7983421
000010 3d 4f 14 be 42 85 e5 bf c5 ac 66 bf 53 af 86 3f
       -0.14483352 -1.7931292 -0.90107375 1.0522255
000020 2c 44 13 c0 12 6f 32 bf 0e 88 c2 3f 97 29 ad 3f
       -2.301036 -0.6970073 1.519777 1.3528317
000030 78 b9 b5 3e e5 e6 a7 3d 56 da 0e 3e ff 47 5a 3f
       0.35493064 0.081983365 0.13950476 0.8526611
000040 27 6a 50 be 1b 1a 93 bf f2 a0 f8 bd f5 d9 4b bf
       -0.20352994 -1.1492342 -0.12140073 -0.7962945
000050 14 c1 b2 3f 32 2d 09 be f9 cf 57 3e 96 c7 e9 be
       1.3965173 -0.13396147 0.21075429 -0.45660084
000060 cd 93 05 3f 40 73 53 3f 15 82 01 3f a9 f4 94 3c
       0.5217865 0.8259773 0.50589114 0.01818307
000070 df 15 53 be 9e 05 2b 3f 27 e0 19 3f 06 31 0b 40
       -0.20613812 0.66805446 0.60107654 2.1748672
000080 fd b6 e5 be 38 fb aa bf 46 77 c9 3f d4 07 df be
       -0.4486617 -1.3357916 1.5739524 -0.4356066
000090 d9 0b 82 3f ea b0 a8 bf 36 37 23 40 61 11 fe bd
       1.0159866 -1.317899 2.5502448 -0.124056585
0000a0 7c 58 c9 3e df b4 69 3e 66 65 bf bd 1a 55 86 bf
       0.3932532 0.22822903 -0.09345512 -1.0494721
0000b0 e5 6e 38 c0 e4 35 5b 3f a9 24 b4 be 86 52 2f 3f
       -2.8817685 0.85629106 -0.3518422 0.68485296
0000c0 29 aa dd be 7e 24 bb be f7 26 8e 3f d5 6d 6b bf
       -0.43293884 -0.3655128 1.1105641 -0.91964465
0000d0 e6 22 8d bf 2e ba 95 3f b7 e6 54 3f ce 00 b5 bf
       -1.1026275 1.1697443 0.8316454 -1.414087
0000e0 92 fd f0 3e e2 ca 71 bf db 98 0b be a5 fc 17 40
       0.4706846 -0.944502 -0.13632528 2.3747952
0000f0 34 af 21 3f 88 8f a8 3e 0b 32 93 3f 54 f0 8a bf
       0.63157964 0.32922006 1.1499647 -1.0854592
000100 af 1d 3b 3f 7c 6a c9 3e bd 1c e2 be 84 58 ec 3f
       0.7309217 0.39339054 -0.4416255 1.8464513
000110 db 1b 11 3f 65 6c e1 be c3 dd 0b bf 9b 67 a2 bf
       0.5668313 -0.4402801 -0.54635257 -1.2687868
000120 f9 61 f6 be b5 0c ac 3e a8 c5 ae 3e 7b 06 64 40
       -0.48121622 0.33603445 0.34135175 3.5628955
000130 55 a5 91 3f c0 1e db bf 13 9c 02 3e 54 14 1f 3f
       1.137858 -1.7118759 0.1275485 0.62140393
000140 05 73 a1 bf 4a 43 09 be 9d c7 41 3f c0 56 bf bf
       -1.2613226 -0.13404575 0.7569521 -1.4948349
000150 d1 bc 89 be 6b cc e0 be a7 c2 f1 bf 42 60 3b bd
       -0.26901868 -0.4390596 -1.8887528 -0.045746095
000160 ac b1 20 bf 2d b5 e4 be 81 de bb 3f ff ef 71 3f
       -0.62771106 -0.44669476 1.4677278 0.9450683
000170 dd 53 18 c0 1d a9 0c bf 77 b7 b7 bb de 3f 66 bf
       -2.3801186 -0.54945546 -0.0056065875 -0.89941204
000180 69 e7 9f bf 3d 0d 79 3e 16 3e a2 3f 3f f1 5d bf
       -1.2492496 0.24321456 1.2675197 -0.8669624
000190 d9 5a ec 3f d2 2f 33 3e c9 44 83 3f 12 2f c3 be
       1.8465225 0.17498711 1.0255367 -0.3812185
0001a0 7a 61 a6 3f 26 d4 15 bf 7a a4 7e 3e 25 34 97 bd
       1.2998497 -0.5852684 0.2486743 -0.07382993
0001b0 a6 c3 80 3c 31 5e d2 3d 45 99 cb 3e 6d b9 09 40
       0.015718292 0.10271872 0.39765373 2.1519425
0001c0 63 38 99 bf bc a7 23 3f d7 43 9b bf f2 83 20 bf
       -1.1970333 0.6392782 -1.2130078 -0.6270133
0001d0 65 2c b3 bf 59 db 64 3f d2 06 37 bf ca c6 bb 3e
       -1.3997923 0.893972 -0.7149478 0.36675102
0001e0 62 84 a4 bd e4 36 09 be 14 d5 ee 3e 90 6c 8d 3f
       -0.080330625 -0.13399845 0.4664694 1.1048756
0001f0 04 02 03 40 2c 6b 84 3f c7 93 eb 3f d1 c7 6b bf
       2.046998 1.0345206 1.8404473 -0.9210177
000200 84 b9 aa bf 2b 0f aa be 65 02 ea bf 36 a9 dc 3e
       -1.3337865 -0.33214697 -1.8281981 0.43097848
000210 41 d0 3e 3f 2e fc 14 be c1 86 3d bf 06 46 9b bf
       0.7453652 -0.14549324 -0.74033743 -1.2130744
000220 11 bb 51 3f c8 9f ce 3f 6d 33 65 3d e6 7e 8a bf
       0.81926066 1.6142511 0.055957247 -1.0819976
000230 4c 94 06 40 ac 43 05 bf ab a3 d3 3e f8 1f dc bf
       2.1028013 -0.52056384 0.41335806 -1.7197256
000240 04 59 ea bd f3 f4 5e bf a6 62 29 3f 76 07 09 3f
       -0.1144276 -0.8709251 0.6616615 0.5352701
000250 a6 76 12 c0 6e 7d 47 bf bb bb 9b 3f c4 68 f1 3e
       -2.2884917 -0.77925766 1.2166666 0.47150242
000260 4b 32 c9 bf aa aa 22 3f 26 46 5e bf 27 3f 5e 3d
       -1.5718473 0.6354166 -0.8682579 0.054259446
000270 50 8f d5 3f 7f 73 57 be a0 25 6b 3e 12 5d 2d 3f
       1.668436 -0.21040152 0.22963572 0.6772014
000280 6f 27 dd 3f 41 08 0b 3f 45 e6 df bf 74 bc 66 3e
       1.7277659 0.5430947 -1.7492148 0.22532827
000290 58 eb ad 3e f6 ad 91 3d 23 0b 8d bf af 5e db 3e
       0.33968616 0.071132585 -1.1019024 0.42845675
0002a0 9f 74 b7 3e cf 23 30 bf 3b d1 83 3f 30 83 d2 bf
       0.35831162 -0.6880464 1.0298227 -1.6446285
0002b0 56 37 15 40 30 81 9f 3e 37 41 57 3f cb b1 2a 3d
       2.3315024 0.3115325 0.84083885 0.041673463
0002c0 b2 a5 8e bb b1 02 8e 3f 26 0a 2f be d7 7d 89 bf
       -0.0043532485 1.1094571 -0.17093715 -1.0741528
0002d0 ca d5 5a bf 84 1f 2c be bf a1 e9 bf 0a 1c 88 bf
       -0.85482466 -0.16808897 -1.8252486 -1.0633557
0002e0 0d 50 1b c0 c9 d2 94 bf dd 64 e1 be 5d cc 9a bf
       -2.426761 -1.1626827 -0.44022265 -1.2093617
0002f0 46 33 be 3f 8a 0b aa bf dd 1d 15 3f a7 58 13 3f
       1.4859397 -1.3284771 0.5824869 0.5755715
000300 74 12 19 c0 4a 5a 2a be 5c 9d b1 3f 64 aa 8a 3f
       -2.3917513 -0.16636005 1.3876147 1.0833249
000310 6b c3 eb be e3 a8 10 3f a5 65 8d be ef 33 c8 3c
       -0.4604753 0.565077 -0.2761661 0.024438826
000320 94 50 02 3f 30 0b af 3f 01 4a 26 bf 5b 3c 70 3f
       0.509042 1.3675289 -0.6495667 0.93842095
000330 1a 77 33 bf 79 1d 0e bf 3d 44 1b bf d8 f2 d9 3f
       -0.7010361 -0.5551372 -0.60651 1.7027235
000340 f4 07 e1 bf 9f ed 8b be b5 93 44 3f 9a 3d b7 be
       -1.7580552 -0.27329728 0.76787883 -0.35789186
000350 71 0d 32 bf dc 39 72 3f 81 bb 96 3d e8 cf 63 3f
       -0.6955176 0.94619536 0.07359982 0.88989115
000360 55 de 91 3e da 03 61 be 49 6f 57 be 33 f8 57 3f
       0.28489938 -0.21974126 -0.21038546 0.84363097
000370 4b 4d 84 bf a6 ed b4 bf 3d e4 8d 3e f1 1e 3f bf
       -1.0336088 -1.4135025 0.27713194 -0.7465659
000380 99 f3 c7 bf 96 ad d7 3e 11 a9 a9 3e 31 09 95 bf
       -1.5621215 0.42124623 0.331368 -1.164343
000390 d1 92 97 bf 33 0d cd 3d d0 90 03 c0 56 af 8c 3f
       -1.184168 0.10012283 -2.0557137 1.0991008
0003a0 9b 8b 44 bf 58 d3 a5 be 89 b9 f7 be e1 19 ed 3f
       -0.7677552 -0.32387805 -0.4838374 1.8523523
0003b0 b5 a3 c6 3e 88 d8 6d 3e bc 72 6c 3f d6 d4 23 be
       0.38796774 0.23227131 0.9236257 -0.15999159
0003c0 37 6a ef 3d 92 5b 1f bf 2f 7e e6 bf b5 ff 0a 40
       0.11690181 -0.622491 -1.8007258 2.171857
0003d0 1a e7 f5 3f cc 2e b2 bf 5e df a6 bd 9f f6 64 3e
       1.9211152 -1.3920531 -0.08148073 0.22359703
0003e0 b7 59 c2 bf 19 00 03 c0 d5 b1 ef be 2c c4 24 be
       -1.5183629 -2.046881 -0.46815363 -0.16090459
0003f0 57 af a4 3d bd c3 5b bf e3 c3 3a bf ec eb ce 3f
       0.08041256 -0.8584555 -0.7295515 1.6165748

base_model.model.model.layers.0.self_attn.o_proj.lora_A.weight f4 [16, 64]
000000 e9 51 2a 3f 9d 65 0e bf 8a 1e 46 3f cd 40 0c 3f
       0.66531235 -0.556238 0.7739035 0.5478638
000010 74 88 df be a1 67 09 bf 40 65 02 c0 81 e8 ba 3e
       -0.43658793 -0.5367375 -2.0374298 0.3650551
000020 54 24 4c bf 92 34 f4 bf 02 28 10 bf 56 76 2f 3f
       -0.7974293 -1.9078543 -0.5631105 0.6853994
000030 72 6b ae be 2f f3 a1 3f c3 a4 e3 3e 27 04 48 bf
       -0.3406635 1.2652339 0.4446164 -0.78131336
000040 dd 85 0e be 33 e8 74 bf 5b 52 4b bf 5a d5 e7 3e
       -0.13918252 -0.9566681 -0.7942254 0.45279962
000050 d7 a9 44 be 15 b7 75 bf 28 fe de 3f 6a 58 0a 3f
       -0.19205414 -0.95982486 1.7421312 0.5404116
000060 6a e9 cb 3e 8e 5c f5 bf 7d 79 35 3f d0 c8 2e bf
       0.39826518 -1.916887 0.708885 -0.68275166
000070 78 8d 31 3f 4e 69 e5 3f 52 09 87 bf 9a c2 b5 bf
       0.6935649 1.7922761 -1.0549719 -1.4200013
000080 c3 67 11 3e ef 29 38 be d0 b7 0e be 24 aa 13 3d
       0.14199738 -0.17984746 -0.13937306 0.03605093
000090 e1 28 00 bf d8 ee 0e 3f bc ba cf be 9f 4e c1 be
       -0.50062376 0.55833197 -0.40572155 -0.37755296
0000a0 78 20 b3 be 3d de 91 bf fe d5 ec 3e 0e ce 79 bf
       -0.3498571 -1.1395947 0.46257013 -0.9758004
0000b0 5b fe 03 3e 94 65 9d 3f 59 69 10 40 79 e8 f5 bf
       0.12889998 1.2296624 2.25643 -1.921157
0000c0 a6 49 df 3e 10 c0 d8 3e 5a 26 4a be 94 a7 3f 3d
       0.43610877 0.42334032 -0.19741192 0.046790674
0000d0 e9 30 75 3f c6 96 d2 bf 65 79 ae 3f 21 ae ac 3f
       0.95777756 -1.6452262 1.3630797 1.349064
0000e0 5d 59 08 3f 06 10 4a bf 12 1b 2d 3d fe c3 de be
       0.5326136 -0.789307 0.042262144 -0.43508905
0000f0 38 80 84 3f 18 13 8a bf e7 48 fe bf 06 d1 b5 3e
       1.0351629 -1.0787077 -1.9865998 0.35511035
000100 90 5a a2 3e 79 8e 70 3e bd b8 9d 3d fd e3 b4 be
       0.3170972 0.23491849 0.07701252 -0.3533019
000110 d5 4c b9 3f ae 90 b7 3e 99 b2 e9 be df 04 42 bf
       1.4476572 0.3585257 -0.45644072 -0.7578868
000120 46 b4 fb be 93 86 a9 3e fa 2d 95 bf ca a9 97 bf
       -0.49160975 0.33110484 -1.1654656 -1.184869
000130 c2 a1 e6 3e 13 54 56 3d 87 87 96 3f e2 02 86 bf
       0.45045286 0.052326273 1.176011 -1.046963
000140 41 c9 6f bf ba 1a 1b be 0f ee 1e 3f 00 bb d9 be
       -0.93666464 -0.15146914 0.62082 -0.42525482
000150 71 67 34 3f 88 a9 90 bf f6 e5 f5 be 93 6e 24 be
       0.7047034 -1.1301737 -0.4802701 -0.16057806
000160 ac 69 0d c0 b0 4d eb 3e 61 dd 83 3f 02 15 08 c0
       -2.2095747 0.45957708 1.0301934 -2.1262822
000170 31 a2 09 40 1d a9 a6 bf e2 1b b8 3e 95 6c e1 3f
       2.1505244 -1.3020359 0.35958773 1.7611262
000180 d2 32 9e 3e 3b 86 06 c0 43 cd 0d 3f 8b f6 29 3f
       0.30898148 -2.1019428 0.5539133 0.6639182
000190 e1 2e d3 3f 6d fe 41 3e ad a1 21 bf 24 42 86 3f
       1.6498681 0.18944712 -0.6313732 1.0488935
0001a0 4f 3a 96 3f 90 26 ab 3f b3 49 ca bf 08 de 0f 3f
       1.1736544 1.3371143 -1.5803741 0.5619817
0001b0 7d 42 3e bf 74 83 24 3e 14 58 e3 bd 68 53 dc bf
       -0.74320203 0.1606577 -0.11100784 -1.7212954
0001c0 7b 85 95 bd 1c c5 7b bf 8b 8c 7d 3f 20 bc 62 bf
       -0.0730085 -0.9834764 0.99042577 -0.88568306
0001d0 7d 4f cf bf 45 72 58 3f c4 b0 d1 3e 8c f6 51 3d
       -1.6196133 0.8454936 0.40955174 0.051260516
0001e0 9d 69 24 3f 69 a7 6b bf bc 0b aa be 94 58 aa bc
       0.64223653 -0.9205232 -0.33212078 -0.02079419
0001f0 c1 c9 89 3f 42 3c e1 3e ed fb 89 bf ac 50 6e bf
       1.0764695 0.43991286 -1.0780007 -0.93091846
000200 67 c7 50 bf f8 6d 0e 3f 36 92 95 3d 87 1b 8f be
       -0.81554264 0.5563655 0.07303278 -0.2795069
000210 f0 10 12 be 3e d8 06 3f d8 77 62 be 27 a5 01 bf
       -0.14264274 0.5267371 -0.2211603 -0.5064263
000220 a0 db 98 3f 04 c5 08 3f e5 0d 4e bf 1d 1d d3 3e
       1.1942024 0.5342562 -0.8048995 0.4123315
000230 0d 13 8e 3f 5c 3d 0f be 50 99 19 3f ce 13 9a be
       1.1099564 -0.1398825 0.5999956 -0.30093235
000240 da 15 3a 3f 3c c9 c9 3e e1 3e ee be ba 41 b0 3e
       0.7268959 0.39411342 -0.46532348 0.34425145
000250 1c 62 73 3f 55 38 72 3f 99 40 92 3f 28 3c 19 40
       0.9507158 0.94617206 1.1425964 2.3942966
000260 fe a3 68 be 23 01 2b be f1 67 99 3f fe 0a b9 bf
       -0.22718808 -0.16699652 1.1984845 -1.445648
000270 e3 06 89 3e 35 54 95 3d 3f 2c 49 3f 39 01 b6 3f
       0.26763067 0.07291452 0.7858314 1.4219123
000280 64 02 12 be 2f 9b 38 3f 47 2e ab 3f 9a 19 2d c0
       -0.14258724 0.7211179 1.3373498 -2.7046876
000290 7f 6c e8 bd 61 3c fa 3f 6a 4a 55 3f ff e2 09 3e
       -0.11348819 1.9549676 0.8331667 0.13465498
0002a0 30 c4 93 3e d2 21 0b 3f 04 3d 60 bf 5f ef 12 3d
       0.28860617 0.5434848 -0.875931 0.035872813
0002b0 db 39 66 bf 90 17 05 40 4b 3e 1e bf 1f 56 ce bf
       -0.8993203 2.0795631 -0.618138 -1.6120032
0002c0 5e 47 9b 3e 7c 82 2d bf 3d 64 1f 3f 65 14 ff bf
       0.30327886 -0.6777723 0.62262326 -1.9928099
0002d0 ac 23 2b be 75 b0 1e be 0f 34 c9 bf 68 18 a9 3e
       -0.16712826 -0.15497 -1.5719012 0.33026433
0002e0 9c ff e8 3f 42 f6 8b bd 0f bf 17 3f 99 74 f4 3f
       1.8203006 -0.06834079 0.5927591 1.9098083
0002f0 b5 57 d7 3e 84 fa a3 3f 86 01 bd bf 7a 3e 9b bf
       0.42059103 1.2810826 -1.476609 -1.2128441
000300 4e e2 92 bf c8 6f 93 bf ab d7 88 be ff 93 dd 3f
       -1.1475313 -1.1518488 -0.26727042 1.731079
000310 8b 79 22 bf 76 af 29 c0 e1 5d 9d bd 40 bf 4b bf
       -0.6346671 -2.6513343 -0.076839216 -0.795887
000320 4b 5b 1a 3f 95 89 38 3f e0 ed c5 3f ea e6 f8 3e
       0.6029555 0.72084934 1.5463219 0.48613673
000330 dc 84 0c 3f 53 9e 81 3d e6 51 f5 bd 80 4f b5 bc
       0.5489023 0.06329026 -0.119785115 -0.022132635
000340 49 35 d0 be be 1e f7 bf db 15 11 40 9a df d6 bf
       -0.40665653 -1.9306257 2.266959 -1.6786988
000350 70 2f 75 3f ac 50 32 3e 0b 3e 07 3e 51 cb a9 bf
       0.9577551 0.17413586 0.13207261 -1.3265172
000360 dd 33 01 40 33 41 a7 bf b7 de bd 3f d8 5d 0f 3f
       2.0187905 -1.3066772 1.4833592 0.5600257
000370 b7 d6 28 40 12 4f 25 3f 39 8e 80 bf cb b6 15 be
       2.6381052 0.64573777 -1.0043403 -0.14620511
000380 d1 55 20 3f 09 8e ff bd c5 14 94 bf be 11 38 c0
       0.62630945 -0.12478263 -1.1568838 -2.876083
000390 c0 c8 63 3e 7f b1 b7 bf 4a 0c 14 bf c7 2d b1 bd
       0.22244549 -1.4351043 -0.5783125 -0.086513095
0003a0 cd 9e c1 3d 8f 40 ae bf 57 47 19 3f 02 13 61 3f
       0.09454117 -1.3613452 0.5987448 0.8791963
0003b0 35 97 aa bd e0 70 e7 be 0d cd 8d 3f 67 b5 3a 3e
       -0.08329622 -0.45203304 1.1078202 0.18233262
0003c0 28 1c db be cc 01 21 3f e9 57 87 bf 78 7b ab bd
       -0.4279492 0.62893367 -1.0573703 -0.08373159
0003d0 3c 4d ce be 8b 73 bd 3f dc 12 95 bf 6a f4 d6 3f
       -0.402933 1.4800886 -1.164638 1.6793339
0003e0 a2 bb a0 3e 8c c1 05 40 41 ed 6d bf f6 12 90 3e
       0.31393152 2.0899382 -0.92940146 0.28139466
0003f0 bc f2 b6 3f 74 43 9c 3f ef 33 f1 be 1b 64 6d 3e
       1.4292827 1.2208085 -0.47109935 0.23182718

base_model.model.model.layers.0.self_attn.o_proj.lora_B.weight f4 [64, 16]
000000 82 3d a8 bf bb 8e 3b bf f2 d9 f9 3f 42 56 e6 3e
       -1.3143771 -0.73264664 1.9519637 0.44987684
000010 8d 6f 26 3e 1c 19 48 3e 27 c7 c4 be 94 04 2c bf
       0.16253491 0.19540828 -0.3843319 -0.67194486
000020 3c 99 3d 3e d4 38 8b 3e 19 6f 7f 3f 9d 91 9a bf
       0.18515486 0.27191794 0.99778897 -1.2075688
000030 53 ac e6 be 68 9d eb 3d a9 51 03 3f c5 56 c9 be
       -0.45053348 0.11504632 0.5129648 -0.39324012
000040 55 b3 60 40 25 e6 9f bd f8 d5 75 bf 9a e6 18 40
       3.5109456 -0.078075685 -0.96029615 2.3890748
000050 6d fc a4 be 63 1b e3 3f 15 ec bc bf 46 8e e3 3d
       -0.32223836 1.7742733 -1.4759547 0.11111121
000060 0d be 25 40 bb 3d 16 3f cc 13 23 3f c8 42 54 3f
       2.5897248 0.58687943 0.6370208 0.829144
000070 c0 c7 05 c0 50 f3 86 3f 6d 4a f7 bd f7 8d e4 3f
       -2.0903168 1.0543003 -0.120747425 1.7855824
000080 4b c0 eb 3f d8 2f 74 3e 13 91 24 40 fb 33 5a 3f
       1.8418058 0.23846376 2.5713546 0.85235566
000090 05 39 04 40 33 7c 17 bf bc 2c 11 bf 70 82 1f 3f
       2.0659802 -0.5917389 -0.56708884 0.62308407
0000a0 79 2c bf bf ba 24 07 bf 06 27 fe be 1a 5b ac be
       -1.4935447 -0.52790415 -0.49639148 -0.33663255
0000b0 c3 be 8b 3e 07 1c 94 3e 55 f7 88 bf d2 5f d2 bf
       0.27293977 0.28927633 -1.070048 -1.6435492
0000c0 65 8d c0 3e a3 1f c2 bf 80 2b 94 3f 60 51 ea be
       0.37607875 -1.5165905 1.1575775 -0.4576521
0000d0 ab 10 87 3d 3a 2b 66 3f 87 bd 58 be 3f 04 ce bf
       0.06594976 0.8990971 -0.21166049 -1.6095046
0000e0 e5 b9 17 3d 88 38 3a 3f 1b 64 b0 be 78 6b 83 3f
       0.037042517 0.7274251 -0.34451374 1.0267172
0000f0 be 94 9e 3d 2a a4 b7 be 07 54 92 3e 07 18 22 c0
       0.07743214 -0.35867435 0.28579733 -2.5327165
000100 62 95 55 3e 3f 81 42 3d 22 24 d3 3f 43 79 4f 3f
       0.20857766 0.04748654 1.6495402 0.81044406
000110 9d 4c cc bf 53 91 90 3f 3f f7 d2 bf 4b 37 19 bf
       -1.596088 1.129435 -1.6481704 -0.59849995
000120 83 e7 e2 bf 42 cf cf 3e 4d 52 46 3f 13 a3 d8 3e
       -1.7726902 0.40587813 0.7746933 0.42311916
000130 1c 76 43 bf c7 5c 0c 3e 59 f6 a3 be 9c de 8d be
       -0.76352096 0.13707267 -0.32023886 -0.277089
000140 e1 f8 8b 3d 78 e6 d6 3e 7d ff 83 3f 0a 5a 1b 3e
       0.06834579 0.4197271 1.0312344 0.15171066
000150 05 fc 8e 3e 38 c5 86 bf 69 d3 94 bf 60 1f f8 3d
       0.2792665 -1.0528936 -1.1627017 0.12115359
000160 64 9e 1f be 5b a4 09 3f e1 27 05 c0 b1 d8 30 3f
       -0.15587765 0.5376641 -2.080559 0.69080645
000170 24 a4 47 3f f2 3d 5e 3e a4 c4 5b bf d8 8f 5f bf
       0.77984834 0.21703318 -0.85846925 -0.87328863
000180 9a c1 02 c0 00 0d a0 3f db d2 ff be 80 4c a7 3f
       -2.0430665 1.2503967 -0.49965557 1.3070221
000190 21 d4 4a be 0b ce 38 3f 22 5a c7 3f f8 0e 6c 3f
       -0.19807483 0.72189397 1.5574381 0.9221034
0001a0 52 c8 fa be 33 a4 4f be d7 90 db bf 7b 89 08 bf
       -0.48980957 -0.20277481 -1.7153577 -0.5333478
0001b0 22 5d ca bd 09 f4 b9 3e 80 52 1d 3f 9c b4 45 3f
       -0.09881045 0.36318997 0.6145401 0.77228713
0001c0 21 51 e1 3e b5 24 c0 3f 87 ce 92 bf 21 a4 24 bf
       0.4400721 1.5011202 -1.1469277 -0.6431294
0001d0 1c 04 52 bf a2 14 9e bf 11 d6 2a bf fc ee 21 bf
       -0.8203752 -1.2350047 -0.6673289 -0.63255286
0001e0 42 9b 7f be 53 1a ea be b3 6b d1 3e 07 8a d0 3e
       -0.2496157 -0.4572321 0.4090248 0.40730307
0001f0 4b 42 92 3f 3b c4 18 bd ff f9 ce be 2e 9e de bf
       1.1426481 -0.037296515 -0.40425107 -1.7392023
000200 8c 21 2b 3f 97 41 76 bf c9 d5 6f bf a5 a5 44 3f
       0.66848063 -0.9619383 -0.93685585 0.76815253
000210 c6 07 17 3f cb f1 9f 3e f8 61 9a bf fb 64 c6 3c
       0.58996236 0.3123916 -1.2061148 0.024218073
000220 5a 8b 13 3f 8b 0f c2 bd d8 ed 37 3e 46 4c 62 bf
       0.5763451 -0.09475621 0.17961824 -0.88397634
000230 6e 28 18 bf 84 7e 31 bf 51 e6 e4 3e 4f 88 f2 3f
       -0.5943669 -0.6933367 0.44706967 1.8947848
000240 57 47 04 3f a5 51 79 3e 1a 91 ad 3f b1 de af 3f
       0.51671356 0.24347551 1.3559906 1.3739835
000250 c0 2a 9d 3f b8 4a 25 bd be 26 0f 3f 17 49 d2 3f
       1.2278671 -0.04035446 0.5591849 1.6428555
000260 6e 5b 9a bf ea 43 16 c0 69 e5 b5 3f 25 f9 b2 be
       -1.2059152 -2.3478951 1.4210635 -0.34955707
000270 e8 c8 99 bf f6 f2 50 3f 03 4d cb bf 0a 57 f2 3f
       -1.2014437 0.8162073 -1.5882877 1.8932812
000280 12 fd fb bb 89 b2 47 bf ab b6 b4 be 5e ed f2 3e
       -0.0076900804 -0.780068 -0.35295615 0.47446722
000290 f4 c9 e1 3f 9d 67 8c bf e5 00 4f bf 4c 14 ae bd
       1.7639756 -1.096912 -0.8086074 -0.08499965
0002a0 93 f3 9d bf 48 59 b5 3f e1 c9 4c 3c 3e f4 7a bf
       -1.2339958 1.4167871 0.012499304 -0.98028934
0002b0 ea d5 af be 94 2b 2d bf 65 72 39 3e 7a 9b ae be
       -0.3434289 -0.6764462 0.18110044 -0.34102994
0002c0 9d c4 67 bf b2 53 11 3f f0 b7 06 3f e4 6e 20 3f
       -0.90534383 0.56768334 0.52624416 0.62669206
0002d0 20 cd dc 3e c5 a2 bc 3f 67 85 a5 bf 2e 0c 80 3e
       0.43125248 1.4737173 -1.2931336 0.25009292
0002e0 8d 45 a6 3e 02 64 85 3f 62 fb 87 3f 27 bf 4a be
       0.32474938 1.0421145 1.0623591 -0.19799481
0002f0 8f e7 07 bf c2 19 26 3f 14 06 0c 40 ed 88 22 bf
       -0.53087705 0.64883053 2.187871 -0.6349018
000300 a3 7b 92 bf 3b 7b 50 3f 6f a6 ba 3e 57 11 db 3f
       -1.1443981 0.81438035 0.36455104 1.7114667
000310 b3 c1 f3 be 0b c3 02 c0 db ea b3 be 85 f9 82 3f
       -0.47608718 -2.0431545 -0.35140118 1.0232397
000320 39 70 68 3f 11 27 d2 3f 5c 02 5d 3e dd f6 2e 3f
       0.9079624 1.6418172 0.21582931 0.68345433
000330 af c8 3b bf 6a 0b 0b be ed 42 fe be 27 f9 d1 3f
       -0.73353094 -0.13578573 -0.49660435 1.640416
000340 36 3b 5e 3f a9 e7 a2 3f e2 02 95 bf 70 35 57 3f
       0.868091 1.2726947 -1.1641505 0.84065914
000350 14 af 64 bf d3 2f 2c 3e 3c 6b 4d be 06 77 97 3f
       -0.8932965 0.16815118 -0.20060438 1.1833198
000360 8d fa f0 3e 43 f7 26 3e 18 09 ed bf 73 05 e6 3e
       0.47066155 0.1630526 -1.85184 0.44926032
000370 bd 7b a3 bf f5 66 ee 3e 81 8b 4d 3f ab 34 fa bf
       -1.2772137 0.46562925 0.8029099 -1.9547323
000380 a0 b6 6f bf 54 f0 b0 3d 78 0f 21 3f 1d 15 81 3e
       -0.9363804 0.08639589 0.6291423 0.2521142
000390 cb 65 9f 3f f4 91 b1 3e 1e 0a 12 c0 9d c6 4d 3f
       1.245294 0.34681666 -2.2818675 0.80381185
0003a0 50 9a 33 3f 70 24 2e 3f 0c 4d c2 bf 4c a5 92 be
       0.7015734 0.6802435 -1.5179763 -0.28641737
0003b0 6a 38 f7 3f 6f ff 3b 3f 11 f0 9f 3f 55 08 35 bf
       1.9314091 0.73436636 1.2495137 -0.7071584
0003c0 2e ce 9b bd 77 8b 85 3e c9 86 c0 be 70 70 11 c0
       -0.07607685 0.26082966 -0.37602833 -2.2724876
0003d0 17 0f 25 3f 7b a2 c2 be 58 af fa be 3d 8b c3 3f
       0.6447615 -0.38014588 -0.48961902 1.5276867
0003e0 ea c8 43 3d c3 f8 61 3e dd 1a 1d bf 49 6a 82 bf
       0.04779903 0.22067551 -0.61369115 -1.0188686
0003f0 b2 22 c1 3e 14 25 bf bf 1f 4a 22 bf 0e a5 d6 3d
       0.37721783 -1.493319 -0.6339435 0.104807004

base_model.model.model.layers.0.self_attn.q_proj.lora_A.weight f4 [16, 64]
000000 1a 3b 1d 3c fe fc e3 3e 9a 0c c0 bf 52 84 3c 3f
       0.00959661 0.44528955 -1.5003846 0.73639405
000010 e2 6d 8c bf fb e4 6b bf db 10 3f 3f ae 5a 01 be
       -1.0971034 -0.9214627 0.74635094 -0.12632248
000020 dc f2 e5 3e 01 19 bc 3d 75 40 6b bf 7c 4a 01 40
       0.4491185 0.091844566 -0.9189523 2.0201712
000030 af 6b 88 bf c8 f9 81 bf f9 3e 73 3d 5e 3d c7 bf
       -1.0657862 -1.0154352 0.059386227 -1.5565603
000040 b6 60 c1 3e c1 2c 66 3f 3b ba ef 3e 29 03 1e bf
       0.37769097 0.8991204 0.4682177 -0.6172357
000050 9a 59 04 bf b2 76 73 3f f9 3b 6d 3e 2d fc 23 40
       -0.5169922 0.9510299 0.23167409 2.5622666
000060 33 8e 26 bf f7 c2 76 3f 39 30 ba be e6 cd 41 3e
       -0.6506073 0.9639124 -0.36364916 0.189262
000070 6f 8a f7 3f af 4e 64 bf 3f ec 2e 3f 2d 56 a3 be
       1.9339122 -0.8918256 0.6832923 -0.31901684
000080 f6 2f ca 3d 91 92 99 bf c4 fc c1 bf 11 57 ac bf
       0.09872429 -1.1997854 -1.5155263 -1.346407
000090 5a 02 8a be ef 21 7c be ec a8 66 bc f1 7e ab bf
       -0.2695492 -0.2462232 -0.01407836 -1.3398114
0000a0 40 6d c1 bf 56 a1 c4 3e c4 51 8b 3f a8 0d 9a be
       -1.5111465 0.3840434 1.0884328 -0.30088544
0000b0 f3 51 a4 3f ee 69 b8 be 83 9b ee bf 6a ab da 3f
       1.2837509 -0.36018318 -1.8641208 1.7083561
0000c0 ef fc 0c 3f 70 0b 9e 3f 08 b0 1f bf 2a bf 13 be
       0.55073446 1.234724 -0.6237798 -0.14428392
0000d0 76 0a 52 3e bc 60 bd bd 9d 71 89 3e 4a 7f 74 bf
       0.20511803 -0.09246966 0.26844493 -0.9550673
0000e0 b8 e5 70 3f 30 95 ae be 6b 28 ad 3f da 0b b8 3f
       0.94100523 -0.34098196 1.352796 1.4378617
0000f0 55 03 b4 be 57 28 13 be b0 60 f6 be 65 24 8d be
       -0.35158792 -0.14370857 -0.48120642 -0.2756683
000100 00 b3 4d 3f 62 fa 52 3f 19 52 cc bf 7c a5 00 3f
       0.8035126 0.82413304 -1.5962554 0.5025251
000110 07 45 d1 3e 77 57 ea be 53 bd 40 bf a7 68 06 be
       0.40872976 -0.45769855 -0.75288886 -0.13125859
000120 91 ac 40 bf cd 25 56 bf cb 4a 9d 3f af c0 24 bf
       -0.75263315 -0.8365143 1.228845 -0.6435651
000130 74 10 a5 3f 69 04 ed 3e 77 3f 8a 3f dd e9 63 bf
       1.2895646 0.46292427 1.0800618 -0.8902872
000140 9e bb 1a bf a2 81 13 40 9d 16 d1 3f d6 07 af bf
       -0.6044253 2.3047872 1.6335026 -1.3674266
000150 98 33 a2 bf fa 9a e4 3e 83 fe f2 bf c9 2e 0a bf
       -1.2671995 0.44649488 -1.8983921 -0.5397764
000160 ff 7f 86 bf 99 8e 62 3f 44 1b 0d bf 88 4a 91 3e
       -1.0507811 0.88498837 -0.5511973 0.28377175
000170 e8 c8 aa 3f b1 ea 27 3f b5 5d 40 3f 41 4e cb 3d
       1.3342562 0.65592486 0.75142986 0.09927035
000180 82 f7 3b bf 4e 08 81 3f f6 c8 02 3f d2 3b 55 3f
       -0.7342454 1.0080659 0.5108789 0.83294404
000190 2d e2 93 be 3b 5e 52 3f 87 6a e3 3f f8 1e 13 3f
       -0.28883496 0.82175034 1.7766885 0.5746913
0001a0 dc 91 1c be 19 5d 88 bf 72 15 05 bf 14 f4 8c bf
       -0.15290016 -1.0653411 -0.5198585 -1.1011987
0001b0 f9 c2 10 bf 21 a4 a0 bf 62 ca a1 3f ac 45 3e 3e
       -0.56547505 -1.2550088 1.2639887 0.18581265
0001c0 fc 78 1b 3f 79 80 87 bd e0 ba 9c bf ac 4e 99 3f
       0.6073148 -0.06616301 -1.224453 1.1977134
0001d0 c4 04 a7 3f 10 2d 93 3d ba 06 db 3f bd 47 51 bf
       1.3048329 0.07186329 1.7111428 -0.8175009
0001e0 2c 9e dd 3e ba f4 6e 3f ef e2 55 bf 69 f4 0b 3f
       0.43284738 0.93342173 -0.835494 0.54669815
0001f0 fc 9f 61 3f 9c 4d 07 3f 29 60 84 3c 54 b5 48 bf
       0.8813474 0.528528 0.016159134 -0.78401685
000200 63 a8 0e bf 1a 53 a2 3f 4c da 1e bf ec cd 96 3f
       -0.5572569 1.268161 -0.62051845 1.1781592
000210 44 23 b8 3f a2 ac b0 bf 49 64 9e 3e 45 fc 57 bf
       1.4385762 -1.3802683 0.30935887 -0.8436931
000220 64 3e 43 bf b5 b4 7c bd 0e 5e ec be 56 7a 89 bf
       -0.76267076 -0.061695773 -0.46165508 -1.0740459
000230 50 89 5b 3e ef ad 04 40 6e cc 28 3d 1d 9e ea bd
       0.214391 2.073116 0.041210584 -0.11455939
000240 4d 11 1e 3f d3 ff 00 40 ce f5 7d 3d 06 90 5a bf
       0.6174515 2.0156143 0.062001996 -0.8537601
000250 65 44 e6 3f 0e 61 86 bd ff cd 3a 3e b9 c6 aa 3f
       1.7989622 -0.065614805 0.18242644 1.3341895
000260 64 bc 9d 3f f1 17 64 bf fb e8 98 3e 2d 4c c0 bf
       1.2323117 -0.8909903 0.2986525 -1.5023247
000270 d7 72 3a 40 52 6e dd be 2b fd 63 3f e7 24 24 40
       2.9132593 -0.4324823 0.8905818 2.5647523
000280 ac 60 16 3f c2 fd 7a bf 7c 1b e6 be fa ca c5 bd
       0.5874126 -0.98043454 -0.44942844 -0.09657855
000290 81 48 ca 3d 53 b2 f4 bf 48 33 c4 bf 3a cc a5 bf
       0.0987711 -1.911692 -1.532815 -1.295295
0002a0 5d ad 63 3f 6f 4d e8 be b9 42 7c 3f 4b 32 85 be
       0.88936406 -0.45371577 0.9853931 -0.26014933
0002b0 8b 26 93 3c af 64 a2 3d 3c cf a0 bf 16 04 ce bf
       0.017962715 0.0792936 -1.2563243 -1.6094997
0002c0 1d 72 55 bf 28 c6 0a 3f 79 99 bf 3e 5a 39 cd 3f
       -0.8337725 0.5420861 0.37421778 1.6033127
0002d0 0a 2e 2d 3f 62 53 48 bf 71 e2 12 3f e2 c9 6a 3e
       0.67648375 -0.7825223 0.5737677 0.22928575
0002e0 21 20 c9 be 1d b3 49 3e 8a 95 d8 3f c5 04 e4 3f
       -0.39282325 0.19697233 1.6920636 1.7813956
0002f0 e4 b0 71 3f 38 0b 76 bf 0d 39 39 bf e8 00 de 3f
       0.9441054 -0.9611087 -0.7235268 1.7344027
000300 2c 56 82 bf 78 50 75 3f eb b8 3f bf 17 cf 12 3f
       -1.0182548 0.9582591 -0.7489154 0.57347244
000310 d7 a2 84 3f 51 98 af 3f 3a cf 95 3f a9 2e fa be
       1.0362195 1.3718358 1.1703866 -0.48863724
000320 87 92 38 bf c8 d9 46 bf f0 3e ea be 31 62 43 3f
       -0.72098583 -0.7767606 -0.45751143 0.76321703
000330 2a 7c 18 bf 42 8c be 3e cd 5f 73 3e 36 fb 68 bf
       -0.5956446 0.37216383 0.23767014 -0.9100832
000340 80 18 12 40 3f 13 ba 3f b4 92 a1 3f 91 97 23 c0
       2.2827454 1.4537123 1.2622895 -2.5561259
000350 8f 4f 01 bf cb 1a 12 c0 a1 1d 04 3f d7 38 17 c0
       -0.5051202 -2.2828853 0.5160771 -2.3628442
000360 74 f3 fa be c4 b3 33 bf 7a 56 2c bf e3 72 41 3e
       -0.49013865 -0.70196176 -0.6731945 0.18891482
000370 a0 02 98 bf 12 46 14 bd 03 eb 03 c0 f6 ce 2f 40
       -1.1875801 -0.036199637 -2.061219 2.747007
000380 c9 4f 00 c0 62 1e 11 bf ea 89 7b 3f cb a0 0c 3f
       -2.0048697 -0.56686985 0.98257315 0.5493285
000390 b5 ee 1a bf 6a dd 2f 3e 20 bb a7 be e0 63 a2 bf
       -0.6052049 0.17174307 -0.32759953 -1.268673
0003a0 ed f9 2f bf 99 69 40 be e4 08 c5 bf e0 92 d0 be
       -0.6874073 -0.18790282 -1.5393338 -0.40737057
0003b0 09 1c 47 bf b4 b8 89 3d c9 64 80 bf 64 fb 93 3f
       -0.77777153 0.067246825 -1.0030757 1.1561093
0003c0 54 40 48 3e 8c d1 66 3f 91 32 d6 be 8e 60 8c 3f
       0.19555789 0.90163493 -0.41835454 1.0966966
0003d0 95 5c 15 c0 da 5f 83 bf 7b 7c 59 3e e9 82 3e be
       -2.3337758 -1.0263627 0.21238892 -0.18604626
0003e0 ac 62 6b 3d ae 79 99 bf 74 98 92 3f 0f 58 65 be
       0.057467148 -1.1990259 1.1452775 -0.22396873
0003f0 6f 27 14 c0 8a ce be 3f ff c1 d9 bd 7f 18 66 3f
       -2.3149068 1.4906781 -0.10632705 0.8988113

base_model.model.model.layers.0.self_attn.q_proj.lora_B.weight f4 [64, 16]
000000 7a 22 8d bf 3f c7 53 bf 85 d6 48 3f 6b 1a 16 bf
       -1.1026146 -0.827259 0.7845233 -0.5863406
000010 3b 9a 17 3f d3 0e c8 bc da 89 ba 3f 84 18 1b bf
       0.5921971 -0.024421131 1.4573319 -0.6058428
000020 de 2a 84 bf a3 44 06 bf 1d 04 2e 3f a0 9d bc 3f
       -1.0325582 -0.5244848 0.67975026 1.4735603
000030 d5 c0 cd 3f 7c 95 30 be c2 48 2f 3f fb 9a 15 c0
       1.6074473 -0.17244524 0.68470395 -2.3375843
000040 da 5f c4 be 18 37 06 bf 3b 7a 08 3f cc 81 ae be
       -0.3835438 -0.52427816 0.5331151 -0.34083402
000050 cf 3a a4 be 54 5f 3a bc f8 c8 ea be 12 e2 67 3f
       -0.32076117 -0.011375267 -0.45856452 0.9057933
000060 62 88 a5 be db a0 81 3f e1 20 83 be c3 8f 13 3f
       -0.32330614 1.0127214 -0.25611022 0.5764124
000070 2a 85 c1 be 1f 30 af 3f 60 b3 e1 be 92 28 ad 3f
       -0.3779691 1.368656 -0.44082165 1.3528006
000080 fb 98 8b 3f d7 fa 1b 3f c8 33 d6 3f 01 d6 82 3f
       1.0906061 0.60929626 1.6734552 1.0221559
000090 15 36 f4 be d0 ef 6e bf f4 a6 bd bf ef 94 d1 3e
       -0.4769751 -0.93334675 -1.4816575 0.4093394
0000a0 bb 52 7e 3e 0e 0f a6 3f 12 67 81 3e 16 8a b1 bf
       0.24836247 1.2973344 0.2527395 -1.3870265
0000b0 e8 71 35 3f 99 29 58 bf 30 dc 44 3e 05 e5 a6 bf
       0.7087693 -0.84438473 0.1922462 -1.3038641
0000c0 34 56 43 3f 47 1e 04 bf b8 3c 0d bf e7 13 05 bf
       0.7630341 -0.516087 -0.55170774 -0.51983494
0000d0 e4 a5 b0 bc f4 79 11 bf 82 d5 05 be a8 0d 6f be
       -0.021563478 -0.5682671 -0.13069728 -0.23345053
0000e0 a4 a8 84 3d c6 46 64 bf cd 7e 85 3f 95 ff e1 be
       0.06477478 -0.8917049 1.0429322 -0.44140306
0000f0 8c bb 6c 3f 82 58 20 c0 0c ae b6 3e 50 70 9b 3e
       0.92473674 -2.505402 0.35679662 0.30359125
000100 87 43 77 3f 48 2b 0b 3f 0c 54 a4 bf d4 78 d5 3e
       0.96587414 0.54362917 -1.2838149 0.41693747
000110 10 08 82 bf 32 e0 89 bf 40 1e a4 3f 2a cd ee bd
       -1.015871 -1.0771544 1.2821732 -0.11660226
000120 07 a0 0d c0 73 b5 f3 3e 92 19 31 bf 17 1e b9 3d
       -2.2128923 0.47599372 -0.6917964 0.09038942
000130 04 a1 7a 3d b6 15 fa bd 7f c9 27 bf 00 41 86 3d
       0.061188713 -0.12211172 -0.65541834 0.065553665
000140 2f 87 8d bf f9 12 9a bc 81 7d 03 3f e1 72 c4 3f
       -1.105688 -0.018807875 0.5136338 1.5347558
000150 10 9e c9 3f dc 4c a3 3e c6 d6 05 bf 8f 70 d4 3f
       1.5751362 0.31894577 -0.52280843 1.659685
000160 98 35 48 bf e8 9d 79 3f 11 6b 53 3d 6e 50 f7 3d
       -0.7820678 0.9750657 0.05161578 0.120758876
000170 80 ad 9c 3f 96 a1 66 bf c0 43 87 3f 47 03 42 3f
       1.2240448 -0.9009031 1.0567551 0.7578625
000180 1d ea 53 bf 84 fb b5 3f 8b 11 6b 3f 5d 6b 52 3f
       -0.82779104 1.4217381 0.91823643 0.82195073
000190 a7 1e 10 bf 25 68 79 3f 72 e7 97 3f a1 74 dd bf
       -0.5629677 0.97424537 1.1867507 -1.7301217
0001a0 43 2c 5d bf a8 90 0e 3e a4 1d ba be 7e 7a 03 40
       -0.86395663 0.1392237 -0.3635074 2.0543513
0001b0 f3 46 c7 be de f3 f4 be 30 44 15 bf a8 ee e1 3f
       -0.38921317 -0.47842306 -0.5830717 1.7650957
0001c0 40 58 1b be c0 1e 97 be 32 1a d2 bf 1e 27 cd bf
       -0.15170383 -0.29515648 -1.6414244 -1.6027563
0001d0 62 77 f8 be b3 c4 6b be 14 d0 b0 3f 1f a8 c4 ba
       -0.48528582 -0.23024254 1.38135 -0.0015003717
0001e0 2f 48 80 bf 7c 12 29 40 cf bc c5 3f c0 9e 8f 3d
       -1.0022029 2.6417532 1.5448245 0.07012701
0001f0 2d c0 06 3d 16 5e 5c 3f 1f 89 91 bf 45 b7 19 bd
       0.032898117 0.86081064 -1.1369971 -0.037528295
000200 e5 6d d9 bf 2d f9 da 3d 13 21 35 be b8 1c dc bf
       -1.6986662 0.10692058 -0.17688398 -1.7196264
000210 20 ab 39 3e b4 6b 96 3f 83 ee 88 3f 57 34 eb bf
       0.18131685 1.1751618 1.0697788 -1.8375348
000220 a3 79 01 40 57 c6 45 3f ab 0d 94 3f e6 1e 85 3f
       2.023049 0.7725577 1.1566671 1.0400054
000230 5c 2b 1c bf c2 66 bc 3e dd 92 d8 be 68 a9 01 be
       -0.6100366 0.36797148 -0.42299548 -0.1266228
000240 3a a5 b9 bf 27 e0 db bd c3 56 16 bf 61 5a 96 3f
       -1.4503548 -0.10736113 -0.5872614 1.1746331
000250 ed 88 2a bf 58 a8 91 3f cf ef 06 40 0a 33 3f bf
       -0.6661518 1.13795 2.1083868 -0.74687254
000260 62 49 7e 3f 71 02 a8 3f 3b 77 fa 3f 99 3b c8 3e
       0.99330723 1.3125745 1.9567636 0.3910797
000270 4d 38 84 3e 09 81 43 3d cd ca 3b be e4 75 d4 3e
       0.25824204 0.04773048 -0.18339081 0.41496193
000280 ab cc 38 3f bd a9 0c bf 88 ed 8b bf ea 89 36 3f
       0.721873 -0.549465 -1.0931864 0.7130419
000290 2f b3 18 be cf df d1 bf 11 a2 c9 bf 6a d7 06 c0
       -0.14912103 -1.6396426 -1.5752584 -2.1068978
0002a0 7c 75 33 3e 12 24 20 c0 76 e3 83 3e 1d 06 1f 40
       0.17525285 -2.5022016 0.25759476 2.4847481
0002b0 ed 0f d3 be 63 20 92 3e 37 6a 70 3f 91 9d e7 3e
       -0.41223088 0.28540334 0.9391207 0.452374
0002c0 b3 73 c1 be 3f 30 58 3f ce f5 48 c0 64 1c e6 bf
       -0.37783584 0.8444862 -3.1400027 -1.7977414
0002d0 5a 10 10 40 8a 0e 30 be 1e 67 15 3f 07 dd e9 3f
       2.250998 -0.17193046 0.5836047 1.8270577
0002e0 9b b0 e2 be 65 0d 7e be f2 de 17 3f c0 b3 38 3f
       -0.44275364 -0.24809797 0.5932456 0.72149277
0002f0 e1 87 07 bf 38 57 2e 3f d8 b9 e6 bf da e3 a1 be
       -0.5294171 0.68101835 -1.8025465 -0.3161915
000300 bd 2d 54 bc d9 18 55 bf 0a 92 62 3f 84 e2 1c bf
       -0.012950358 -0.8324104 0.8850409 -0.61283135
000310 a0 05 7b 3f b9 4f 05 bf 50 33 40 3e b3 d9 d5 bd
       0.9805546 -0.5207477 0.18769574 -0.104419135
000320 00 74 d2 3d 9a 1c 78 3f bd e2 3b bf f1 d9 5a 3f
       0.102760315 0.9691864 -0.7339285 0.854888
000330 0a 4c f5 bf ea 31 a3 bc e2 7f f0 3e 61 7f e3 3e
       -1.916383 -0.019921262 0.46972567 0.4443312
000340 09 29 43 bf 81 5c c3 bf f5 76 01 bf b7 a4 0c 40
       -0.7623449 -1.5262605 -0.5057214 2.1975534
000350 12 03 99 3c cd 38 8e bf 24 4e 9b 3e 86 45 6f bf
       0.018678222 -1.1111084 0.30333054 -0.9346546
000360 dd d3 6e 3f 9c 0f d3 be a7 d1 4a 3f 2b 01 fa 3e
       0.9329203 -0.41222847 0.79226154 0.48829016
000370 30 9a 05 bf 60 f7 18 bf 2b 85 6e bf e6 f3 c6 bf
       -0.52188396 -0.59752464 -0.9317195 -1.5543182
000380 74 40 96 3f cd de b2 bf 4a a3 79 3f 03 27 0e bf
       1.173842 -1.3974243 0.97514784 -0.5552828
000390 46 11 26 bf 11 93 c1 be 13 38 bc 3e d4 20 18 3f
       -0.6487011 -0.37807515 0.3676153 0.5942509
0003a0 b4 fd dc 3e 3c fd 96 3e 0a 33 91 bf c4 6f d7 be
       0.4316231 0.29490077 -1.1343701 -0.42077458
0003b0 37 a5 26 c0 35 07 d4 3f a0 e6 13 40 2a 2e e1 bf
       -2.603834 1.65647 2.3109512 -1.7592213
0003c0 bf 5e 63 bf e0 d5 46 bf 5d 73 a3 bf d9 fc f3 bf
       -0.88816446 -0.776701 -1.2769581 -1.9061538
0003d0 76 ed 6f 3f 44 5b f3 bf 38 b0 85 3f 75 de 5f 3f
       0.9372171 -1.9012227 1.0444403 0.8744882
0003e0 40 ac b3 bf aa 66 a0 3f ac 98 86 3f de 9f 83 be
       -1.4036942 1.253133 1.0515342 -0.25707906
0003f0 99 4a 85 bf 56 d9 b9 3e 4f 0d 54 3f 5f 3b 0d bc
       -1.041339 0.36298627 0.8283281 -0.008620112

base_model.model.model.layers.0.self_attn.v_proj.lora_A.weight f4 [16, 64]
000000 34 c5 d6 3f 95 8b e6 bd 82 b9 92 bf 1f 52 06 40
       1.6778932 -0.11257092 -1.1462862 2.0987623
000010 cb 2e 36 bf b6 5d 9e 3f 3a 27 88 3f b1 f6 9b be
       -0.7116515 1.2372348 1.0636971 -0.30461648
000020 c5 21 f2 bd 26 60 0f 40 3c 40 0b bf 4c 30 4d 3f
       -0.11822847 2.2402434 -0.5439489 0.8015182
000030 70 b1 ae bf d9 2f 45 3e 24 80 fd bf 28 82 98 bf
       -1.36479 0.19256534 -1.980473 -1.191472
000040 b8 ea 95 bf 94 cf ee be f6 1e 48 bf c4 59 96 3e
       -1.1712255 -0.46642745 -0.7817224 0.2936536
000050 df 01 c4 3f 61 83 01 3f 13 24 07 3f b4 d3 c7 3e
       1.5313071 0.50591093 0.5278942 0.39028704
000060 cf b0 09 3e bc 9f 1d 3f 25 90 aa be ed 05 48 bf
       0.13446353 0.6157186 -0.333131 -0.7813404
000070 bc 5f 64 bf 81 b4 59 bf 24 6b 0c bf 27 33 0a 3c
       -0.8920858 -0.8504105 -0.54850984 0.008435047
000080 3c 5e de 3f 4a 08 4e 3f d8 9f c9 3e 61 dd 36 bf
       1.7372508 0.804814 0.39379764 -0.7143155
000090 6f 43 24 3f 9a f7 be 3f 09 f6 c9 3e 84 b9 f2 3f
       0.64165395 1.4919312 0.39445522 1.8962865
0000a0 84 4c 11 3e 87 28 9c bf 72 c2 76 3e 91 57 a6 3f
       0.14189345 -1.2199868 0.24097613 1.2995473
0000b0 e8 15 f8 3f c3 72 c8 be f7 cd ed 3e 1f f6 f7 3e
       1.9381685 -0.39150056 0.464462 0.48429963
0000c0 58 36 b3 be 7c 9b 92 bf db 96 21 3f b0 f3 dc 3e
       -0.35002398 -1.14537 0.6312081 0.4315467
0000d0 6d 6e 6a bf 07 b0 9e 3e 19 88 84 3c ec 83 8d bf
       -0.91574746 0.30993673 0.016178178 -1.1055884
0000e0 9f 8d 14 3f 81 62 35 3f a1 42 9f bf 9a 4b fd 3f
       0.58028597 0.7085343 -1.2442209 1.9788697
0000f0 01 92 3f bf cb cd c2 be 86 a8 52 3f 35 a8 57 3e
       -0.7483216 -0.38047633 0.82288396 0.2106026
000100 cb fd 03 3f cb 3b 3f 3f 26 08 2f 3f d3 1a 31 40
       0.5155913 0.7470061 0.6837181 2.7672622
000110 4d a4 85 3e f5 87 86 be 1a b4 18 3f 10 4f 12 40
       0.26101914 -0.26275602 0.59649813 2.2860756
000120 b4 fb 87 3f c5 48 5a 3e f2 b8 aa bf dc ea 95 bd
       1.0623689 0.21316822 -1.3337691 -0.073201865
000130 e8 8e b9 3d e4 1e ae 3f 6b 31 ae 3e 49 b4 c4 3e
       0.0906046 1.3603177 0.34022078 0.38418797
000140 ed 6c 8a 3f 0d 87 80 3f 54 e4 0b c0 e8 a5 06 40
       1.0814492 1.0041214 -2.185811 2.103876
000150 b0 14 51 bf 38 0d 90 3f 9a d6 9f 3f 19 80 3a 3f
       -0.8167219 1.1254034 1.2487366 0.7285171
000160 5f a5 f9 be 02 3c 9f be 49 fe 49 3f 62 12 e1 be
       -0.4875898 -0.3110047 0.78903633 -0.43959337
000170 41 92 10 3f 52 d8 86 bf 19 db ae 3e 5c b8 09 3e
       0.56473166 -1.0534766 0.34151533 0.13449234
000180 06 71 96 3f 3e b4 78 3e 46 e8 e2 be d7 e9 60 bf
       1.1753242 0.24287507 -0.44317836 -0.8785681
000190 59 48 92 3f 3a 27 74 3e 4d b5 0b 3f dd f3 e6 3c
       1.1428329 0.23843089 0.5457352 0.028192455
0001a0 f8 ec ba 3f 9c ea af bf 9a f1 bb bf da f5 00 c0
       1.4603567 -1.3743472 -1.4683106 -2.0150056
0001b0 14 9f b4 3f 9b ea 01 3f bf 96 47 bf db 81 89 3f
       1.4111047 0.50748605 -0.77964395 1.0742754
0001c0 a0 f4 3d bf ef 35 e0 3d b8 90 34 3e 9c e2 0d bf
       -0.74201393 0.10947787 0.17633331 -0.55423903
0001d0 ee 4d 52 3e 50 6d 38 3f 5f 35 e2 3f 2b 5d 98 3e
       0.2053754 0.720418 1.7672538 0.29758582
0001e0 10 5b 03 40 8b 3d 46 bd 62 b9 9e 3f 66 46 49 be
       2.052433 -0.048398536 1.2400324 -0.19655761
0001f0 d7 e7 f3 bf c7 f9 87 3f 33 d4 08 3f d0 92 47 3e
       -1.9055127 1.0623101 0.5344879 0.19489598
000200 47 c2 50 3f 75 57 c3 3f 14 c4 d2 bd 1b ac e3 3e
       0.81546444 1.5261065 -0.10291305 0.44467244
000210 c5 56 e9 3c 8e bc 9f bf 5c 56 ff 3d 8c 0e de 3e
       0.028483758 -1.2479417 0.124676436 0.43370473
000220 26 e2 b7 be fe 68 92 3f b9 04 f4 bf 95 0d 00 3e
       -0.35914725 1.1438291 -1.9063941 0.12505181
000230 3f eb 1d 3f 40 91 a5 be 4d 11 9e bd c1 c1 c7 bf
       0.6168708 -0.3233738 -0.077181436 -1.5606004
000240 92 8a a6 bf 63 60 2d 40 79 5a d3 3e d9 a4 dd 3f
       -1.3011038 2.709008 0.41279963 1.7315933
000250 a1 a3 8e 3d 8e 06 aa 3f 4d 51 ae 3f 37 5c 7c bf
       0.069648035 1.328325 1.3618561 -0.9857821
000260 5c f2 4e 3f 71 14 d4 be 27 9d bb bc ad 05 8d 3e
       0.8083856 -0.41421846 -0.022902085 0.27543393
000270 27 25 0d bf f1 4e 3c bf 0f a8 39 bf 6b c3 9b 3e
       -0.55134815 -0.73557955 -0.7252206 0.3042253
000280 d7 85 5f bf 2d 3d 97 bd de be ae 3e 55 39 ef bf
       -0.873136 -0.07384715 0.34129995 -1.8689371
000290 18 1b f8 bc 48 81 94 bf e3 ff 50 bf de 84 81 3e
       -0.030286357 -1.1601954 -0.8164045 0.25296682
0002a0 d2 ff e8 3c 90 46 4e 3f 85 4d 36 3f 91 9f e4 be
       0.028442297 0.8057642 0.71212035 -0.4465299
0002b0 bc a9 78 bf 08 52 5a 3e a9 cc eb 3f 4b d8 94 bf
       -0.97133994 0.21320355 1.8421832 -1.1628507
0002c0 c5 7a 90 3e c0 76 2a bf 25 cf 92 3f f4 3d 78 3e
       0.28218666 -0.6658745 1.1469465 0.24242383
0002d0 07 18 b5 3f 25 c9 86 3f df 69 e7 3f fd f6 f0 bf
       1.4147958 1.0530134 1.8079184 -1.8825375
0002e0 d3 5d 81 3d 47 8f 5a bf 34 f6 19 bf af 32 22 bf
       0.06316724 -0.85374874 -0.601413 -0.6335859
0002f0 a1 fa c1 be 7d 38 2c be c1 41 35 bf 1e 72 a1 be
       -0.37886527 -0.16818424 -0.7080346 -0.31532377
000300 0d 01 9c bf 5d 87 0a 3f 51 6f 81 bf 2b 47 3f be
       -1.2187821 0.541128 -1.0112096 -0.18679492
000310 dc 3e d9 3f a8 a9 b3 bf b9 e7 dc 3d 73 f3 f5 3d
       1.6972308 -1.403615 0.10786385 0.12009325
000320 5b 04 df 3e 59 26 20 3c ba 2e f4 3f dc d8 fa be
       0.4355801 0.009774768 1.907676 -0.48993576
000330 f9 2e 99 3e 7b f1 ee be 07 95 59 3f 8e 64 1f bf
       0.2991865 -0.4666861 0.8499302 -0.6226281
000340 f5 1e f2 3e b2 4c 24 bf 28 de 65 bf ff f1 c4 3c
       0.47289243 -0.6417953 -0.8979211 0.024041174
000350 59 32 10 3e aa 1c 12 bf c6 7f 6e bf 8a b6 d7 be
       0.14081706 -0.5707499 -0.93163717 -0.42131454
000360 3c 6a bc be 75 0a f9 be 36 24 8b 3d 84 8c 27 3f
       -0.367998 -0.4864079 0.06794016 0.65448785
000370 14 b9 78 bf 72 7a 2e bf 9a fe ec 3f 7e 7b 5e bf
       -0.97157407 -0.68155587 1.8515198 -0.86907184
000380 05 1b ba bf b1 84 24 3d 69 72 2d bf 8c 83 a6 be
       -1.4539496 0.040165607 -0.677527 -0.32522237
000390 bb 6b e0 bd 34 4c 1c bf c0 57 69 3f a5 3a 49 bc
       -0.10958048 -0.61053777 0.9114952 -0.012282048
0003a0 e4 42 f2 be 17 58 db 3e 8b 7c 6d be 11 e2 05 bd
       -0.47316658 0.42840645 -0.2319204 -0.032686297
0003b0 4c ad 13 40 ca 95 85 3f b5 24 7c bf 73 43 d4 be
       2.3074522 1.0436337 -0.9849351 -0.4145771
0003c0 1d 69 d6 bd c5 72 60 bf 8c 37 b1 3e 65 fc a3 3f
       -0.104692675 -0.87675124 0.3461269 1.28114
0003d0 a6 98 96 3e d1 92 e0 3f a4 56 05 c0 e7 75 ef be
       0.29413337 1.7544805 -2.0834131 -0.4676964
0003e0 5d 04 f7 bf 61 8a c4 be 8a 2c 7a be 31 a2 8f 3f
       -1.9298207 -0.38386825 -0.24431053 1.1221372
0003f0 0f 7b b4 3e 47 d2 6a bf 64 63 e0 bc 6b 41 73 3f
       0.35250136 -0.9172711 -0.027391143 0.95021695
